> python .\example.py
SwinTransformer(
  (stage1): StageModule(
    (patch_partition): PatchMerging(
      (patch_merge): Unfold(kernel_size=4, dilation=1, padding=0, stride=4)
      (linear): Linear(in_features=48, out_features=96, bias=True)
    )
    (layers): ModuleList(
      (0): ModuleList(
        (0): SwinBlock(
          (attention_block): Residual(
            (fn): PreNorm(
              (norm): LayerNorm((96,), eps=1e-05, elementwise_affine=True)
              (fn): WindowAttention(
                (to_qkv): Linear(in_features=96, out_features=288, bias=False)
                (to_out): Linear(in_features=96, out_features=96, bias=True)
              )
            )
          )
          (mlp_block): Residual(
            (fn): PreNorm(
              (norm): LayerNorm((96,), eps=1e-05, elementwise_affine=True)
              (fn): FeedForward(
                (net): Sequential(
                  (0): Linear(in_features=96, out_features=384, bias=True)
                  (1): GELU()
                  (2): Linear(in_features=384, out_features=96, bias=True)
                )
              )
            )
          )
        )
        (1): SwinBlock(
          (attention_block): Residual(
            (fn): PreNorm(
              (norm): LayerNorm((96,), eps=1e-05, elementwise_affine=True)
              (fn): WindowAttention(
                (cyclic_shift): CyclicShift()
                (cyclic_back_shift): CyclicShift()
                (to_qkv): Linear(in_features=96, out_features=288, bias=False)
                (to_out): Linear(in_features=96, out_features=96, bias=True)
              )
            )
          )
          (mlp_block): Residual(
            (fn): PreNorm(
              (norm): LayerNorm((96,), eps=1e-05, elementwise_affine=True)
              (fn): FeedForward(
                (net): Sequential(
                  (0): Linear(in_features=96, out_features=384, bias=True)
                  (1): GELU()
                  (2): Linear(in_features=384, out_features=96, bias=True)
                )
              )
            )
          )
        )
      )
    )
  )
  (stage2): StageModule(
    (patch_partition): PatchMerging(
      (patch_merge): Unfold(kernel_size=2, dilation=1, padding=0, stride=2)
      (linear): Linear(in_features=384, out_features=192, bias=True)
    )
    (layers): ModuleList(
      (0): ModuleList(
        (0): SwinBlock(
          (attention_block): Residual(
            (fn): PreNorm(
              (norm): LayerNorm((192,), eps=1e-05, elementwise_affine=True)
              (fn): WindowAttention(
                (to_qkv): Linear(in_features=192, out_features=576, bias=False)
                (to_out): Linear(in_features=192, out_features=192, bias=True)
              )
            )
          )
          (mlp_block): Residual(
            (fn): PreNorm(
              (norm): LayerNorm((192,), eps=1e-05, elementwise_affine=True)
              (fn): FeedForward(
                (net): Sequential(
                  (0): Linear(in_features=192, out_features=768, bias=True)
                  (1): GELU()
                  (2): Linear(in_features=768, out_features=192, bias=True)
                )
              )
            )
          )
        )
        (1): SwinBlock(
          (attention_block): Residual(
            (fn): PreNorm(
              (norm): LayerNorm((192,), eps=1e-05, elementwise_affine=True)
              (fn): WindowAttention(
                (cyclic_shift): CyclicShift()
                (cyclic_back_shift): CyclicShift()
                (to_qkv): Linear(in_features=192, out_features=576, bias=False)
                (to_out): Linear(in_features=192, out_features=192, bias=True)
              )
            )
          )
          (mlp_block): Residual(
            (fn): PreNorm(
              (norm): LayerNorm((192,), eps=1e-05, elementwise_affine=True)
              (fn): FeedForward(
                (net): Sequential(
                  (0): Linear(in_features=192, out_features=768, bias=True)
                  (1): GELU()
                  (2): Linear(in_features=768, out_features=192, bias=True)
                )
              )
            )
          )
        )
      )
    )
  )
  (stage3): StageModule(
    (patch_partition): PatchMerging(
      (patch_merge): Unfold(kernel_size=2, dilation=1, padding=0, stride=2)
      (linear): Linear(in_features=768, out_features=384, bias=True)
    )
    (layers): ModuleList(
      (0): ModuleList(
        (0): SwinBlock(
          (attention_block): Residual(
            (fn): PreNorm(
              (norm): LayerNorm((384,), eps=1e-05, elementwise_affine=True)
              (fn): WindowAttention(
                (to_qkv): Linear(in_features=384, out_features=1152, bias=False)
                (to_out): Linear(in_features=384, out_features=384, bias=True)
              )
            )
          )
          (mlp_block): Residual(
            (fn): PreNorm(
              (norm): LayerNorm((384,), eps=1e-05, elementwise_affine=True)
              (fn): FeedForward(
                (net): Sequential(
                  (0): Linear(in_features=384, out_features=1536, bias=True)
                  (1): GELU()
                  (2): Linear(in_features=1536, out_features=384, bias=True)
                )
              )
            )
          )
        )
        (1): SwinBlock(
          (attention_block): Residual(
            (fn): PreNorm(
              (norm): LayerNorm((384,), eps=1e-05, elementwise_affine=True)
              (fn): WindowAttention(
                (cyclic_shift): CyclicShift()
                (cyclic_back_shift): CyclicShift()
                (to_qkv): Linear(in_features=384, out_features=1152, bias=False)
                (to_out): Linear(in_features=384, out_features=384, bias=True)
              )
            )
          )
          (mlp_block): Residual(
            (fn): PreNorm(
              (norm): LayerNorm((384,), eps=1e-05, elementwise_affine=True)
              (fn): FeedForward(
                (net): Sequential(
                  (0): Linear(in_features=384, out_features=1536, bias=True)
                  (1): GELU()
                  (2): Linear(in_features=1536, out_features=384, bias=True)
                )
              )
            )
          )
        )
      )
      (1): ModuleList(
        (0): SwinBlock(
          (attention_block): Residual(
            (fn): PreNorm(
              (norm): LayerNorm((384,), eps=1e-05, elementwise_affine=True)
              (fn): WindowAttention(
                (to_qkv): Linear(in_features=384, out_features=1152, bias=False)
                (to_out): Linear(in_features=384, out_features=384, bias=True)
              )
            )
          )
          (mlp_block): Residual(
            (fn): PreNorm(
              (norm): LayerNorm((384,), eps=1e-05, elementwise_affine=True)
              (fn): FeedForward(
                (net): Sequential(
                  (0): Linear(in_features=384, out_features=1536, bias=True)
                  (1): GELU()
                  (2): Linear(in_features=1536, out_features=384, bias=True)
                )
              )
            )
          )
        )
        (1): SwinBlock(
          (attention_block): Residual(
            (fn): PreNorm(
              (norm): LayerNorm((384,), eps=1e-05, elementwise_affine=True)
              (fn): WindowAttention(
                (cyclic_shift): CyclicShift()
                (cyclic_back_shift): CyclicShift()
                (to_qkv): Linear(in_features=384, out_features=1152, bias=False)
                (to_out): Linear(in_features=384, out_features=384, bias=True)
              )
            )
          )
          (mlp_block): Residual(
            (fn): PreNorm(
              (norm): LayerNorm((384,), eps=1e-05, elementwise_affine=True)
              (fn): FeedForward(
                (net): Sequential(
                  (0): Linear(in_features=384, out_features=1536, bias=True)
                  (1): GELU()
                  (2): Linear(in_features=1536, out_features=384, bias=True)
                )
              )
            )
          )
        )
      )
      (2): ModuleList(
        (0): SwinBlock(
          (attention_block): Residual(
            (fn): PreNorm(
              (norm): LayerNorm((384,), eps=1e-05, elementwise_affine=True)
              (fn): WindowAttention(
                (to_qkv): Linear(in_features=384, out_features=1152, bias=False)
                (to_out): Linear(in_features=384, out_features=384, bias=True)
              )
            )
          )
          (mlp_block): Residual(
            (fn): PreNorm(
              (norm): LayerNorm((384,), eps=1e-05, elementwise_affine=True)
              (fn): FeedForward(
                (net): Sequential(
                  (0): Linear(in_features=384, out_features=1536, bias=True)
                  (1): GELU()
                  (2): Linear(in_features=1536, out_features=384, bias=True)
                )
              )
            )
          )
        )
        (1): SwinBlock(
          (attention_block): Residual(
            (fn): PreNorm(
              (norm): LayerNorm((384,), eps=1e-05, elementwise_affine=True)
              (fn): WindowAttention(
                (cyclic_shift): CyclicShift()
                (cyclic_back_shift): CyclicShift()
                (to_qkv): Linear(in_features=384, out_features=1152, bias=False)
                (to_out): Linear(in_features=384, out_features=384, bias=True)
              )
            )
          )
          (mlp_block): Residual(
            (fn): PreNorm(
              (norm): LayerNorm((384,), eps=1e-05, elementwise_affine=True)
              (fn): FeedForward(
                (net): Sequential(
                  (0): Linear(in_features=384, out_features=1536, bias=True)
                  (1): GELU()
                  (2): Linear(in_features=1536, out_features=384, bias=True)
                )
              )
            )
          )
        )
      )
    )
  )
  (stage4): StageModule(
    (patch_partition): PatchMerging(
      (patch_merge): Unfold(kernel_size=2, dilation=1, padding=0, stride=2)
      (linear): Linear(in_features=1536, out_features=768, bias=True)
    )
    (layers): ModuleList(
      (0): ModuleList(
        (0): SwinBlock(
          (attention_block): Residual(
            (fn): PreNorm(
              (norm): LayerNorm((768,), eps=1e-05, elementwise_affine=True)
              (fn): WindowAttention(
                (to_qkv): Linear(in_features=768, out_features=2304, bias=False)
                (to_out): Linear(in_features=768, out_features=768, bias=True)
              )
            )
          )
          (mlp_block): Residual(
            (fn): PreNorm(
              (norm): LayerNorm((768,), eps=1e-05, elementwise_affine=True)
              (fn): FeedForward(
                (net): Sequential(
                  (0): Linear(in_features=768, out_features=3072, bias=True)
                  (1): GELU()
                  (2): Linear(in_features=3072, out_features=768, bias=True)
                )
              )
            )
          )
        )
        (1): SwinBlock(
          (attention_block): Residual(
            (fn): PreNorm(
              (norm): LayerNorm((768,), eps=1e-05, elementwise_affine=True)
              (fn): WindowAttention(
                (cyclic_shift): CyclicShift()
                (cyclic_back_shift): CyclicShift()
                (to_qkv): Linear(in_features=768, out_features=2304, bias=False)
                (to_out): Linear(in_features=768, out_features=768, bias=True)
              )
            )
          )
          (mlp_block): Residual(
            (fn): PreNorm(
              (norm): LayerNorm((768,), eps=1e-05, elementwise_affine=True)
              (fn): FeedForward(
                (net): Sequential(
                  (0): Linear(in_features=768, out_features=3072, bias=True)
                  (1): GELU()
                  (2): Linear(in_features=3072, out_features=768, bias=True)
                )
              )
            )
          )
        )
      )
    )
  )
  (mlp_head): Sequential(
    (0): LayerNorm((768,), eps=1e-05, elementwise_affine=True)
    (1): Linear(in_features=768, out_features=3, bias=True)
  )
)
tensor([[[[-3.8027e-01, -5.1500e-01, -1.9269e-01,  ..., -4.6042e-01,
            1.4935e+00, -1.3796e+00],
          [ 2.2836e-01, -3.3062e-02,  3.6841e-01,  ...,  1.3347e-01,
            6.1709e-01, -5.8807e-01],
          [-1.3408e+00, -1.3029e+00,  5.1933e-01,  ..., -3.3710e-01,
           -7.0257e-01, -9.5911e-02],
          ...,
          [ 2.9747e-01,  5.4902e-02, -5.5291e-02,  ..., -1.0855e+00,
…
